models/cifer10_model.pth (torch, 244637 bytes, 6 tensors)

layer1.0.weight f4 [32, 3, 3, 3]
000000 cb 90 27 be 7a 35 61 be 2e c8 37 be 23 ef f8 3c
       -0.16363828 -0.21993056 -0.17947456 0.030387467
000010 b4 18 2a 3e 0a 4f 4c 3b 65 9f ff bd e8 43 0d be
       0.16610986 0.003117504 -0.12481574 -0.13795435
000020 4b cb 32 be 0b 9e 32 3d cd 4b 32 3e 94 e8 81 3e
       -0.17460363 0.043607753 0.17411728 0.25372756
000030 9c 9c b2 3e 73 f5 00 3e 12 f9 9d 3e 9a 19 9a bd
       0.34885108 0.12593631 0.30854088 -0.07524414
000040 09 49 80 3c 80 1f 5a 3e ec ff 97 be e4 92 48 bd
       0.015659826 0.21301079 -0.2968744 -0.04896821
000050 22 ca 19 be f4 c8 43 3e dc ba 41 3e 18 62 7d be
       -0.15018514 0.19119626 0.18918937 -0.24744451
000060 b5 6a e4 3d 85 a1 8a be 12 66 31 be 5e ee 72 be
       0.11153165 -0.27076355 -0.17324093 -0.23723742
000070 b9 30 fa 3b 63 0b 2e 3c a3 73 8d bd e2 15 e5 3d
       0.0076352027 0.010622832 -0.069068216 0.111858144
000080 17 eb 97 3d 0e 1a 45 be 64 a8 84 3e 66 50 3c be
       0.07417887 -0.1924822 0.25909722 -0.18390045
000090 f9 58 d2 bc bf e5 0a 3c 9a fd 21 3e 24 98 55 be
       -0.025677191 0.008477627 0.15819398 -0.20858818
0000a0 28 34 87 3e f7 a3 18 be 34 69 87 bc 3d 5c c8 3e
       0.2640698 -0.14906298 -0.016529657 0.39132872
0000b0 a7 71 0a 3d 28 1c 52 be 0b 2a 5b 3d b0 1c 7f 3d
       0.033799794 -0.20518553 0.053506892 0.062283218
0000c0 ea 32 71 be dc 4b 5c 3e 40 b8 94 3d aa 21 33 be
       -0.23554578 0.21513313 0.072617054 -0.1749331
0000d0 11 e8 04 3e 2e 7a 54 be d0 0f 18 bd 1b db 0b be
       0.12979151 -0.20749733 -0.037124455 -0.13657801
0000e0 ac 31 04 be a5 a0 73 be 6f 03 85 be f4 6c 23 be
       -0.12909573 -0.2379175 -0.25979182 -0.15959531
0000f0 88 26 87 be 02 64 88 be c6 73 d9 3b 9d 74 c6 3c
       -0.26396585 -0.266388 0.0066361157 0.024225527
000100 db 44 5b 3e f8 12 e6 bc 28 be 13 3e 96 15 de 3d
       0.21412985 -0.028085217 0.14428008 0.10843961
000110 29 f8 80 3d 2d cb 07 3e f2 d3 0d 3d 83 c1 74 bb
       0.06297333 0.13261099 0.034625955 -0.0037346787
000120 d9 1b 02 3e 4d 65 67 bd 58 6a c2 3d 8b bb 3d 3e
       0.12705936 -0.056493092 0.0949294 0.18528573
000130 cc 22 1f bd f5 80 fb 3d 5d 88 9f 3d e7 ee 3a 3e
       -0.038851544 0.12280456 0.07789681 0.18255197
000140 9c fb 0d 3d cc dd bd bc 10 0d 8b 3d 04 c6 2d be
       0.03466378 -0.02317705 0.06789601 -0.16970068
000150 df 41 33 be 72 31 57 bd cd 3a ef bd a7 d8 be 3d
       -0.17505597 -0.05253739 -0.11681137 0.09318667
000160 c9 63 d7 bd 8b f9 b4 3d 15 41 94 3d b1 41 11 3e
       -0.105170794 0.08836659 0.07238976 0.14185216
000170 8b af be 3c 50 76 e5 bc 9c 1a 19 3d 70 3c 85 bd
       0.023277065 -0.028010517 0.037378892 -0.06505668
000180 8b ca bb 3c 66 d9 e4 bd 13 e1 68 3e 76 81 00 bd
       0.022923728 -0.11174278 0.22742109 -0.031373464
000190 59 47 c8 bc de f8 61 be bb 30 22 3d 09 27 6b be
       -0.024448084 -0.22067592 0.039597254 -0.2296411
0001a0 f4 f5 39 3e 2f 2e c7 bd 24 a4 4f 3d be e7 04 3d
       0.1816023 -0.09725606 0.050693646 0.03244757
0001b0 f5 56 85 3e 9d 44 2e 3e aa 43 55 be cd 11 aa 3d
       0.26042905 0.17018361 -0.20826593 0.083041765
0001c0 33 34 84 bd 28 9f 83 be ed 8f 7a 3e 0b ff 82 bc
       -0.06455269 -0.25707364 0.24468966 -0.015990755
0001d0 09 3d 03 3e c6 15 5d bd ce 8f 0a bd cd c6 19 be
       0.12816252 -0.053975843 -0.03382855 -0.15017243
0001e0 5f 0d 25 3e 46 0e 88 3d f7 bf 82 3d 9a f7 8d 3e
       0.16118382 0.066433474 0.06384271 0.27727968
0001f0 9f d0 72 3e 0e 03 6c bd cb b9 a3 bd b3 c7 11 be
       0.23712395 -0.0576201 -0.079944216 -0.14236335
000200 c6 df 72 bd 1f 7e f8 bd 17 ba 4a be 29 6c 75 bd
       -0.05929544 -0.12133431 -0.1979755 -0.059917603
000210 77 30 31 be 12 3f 98 3d ba 76 4f 3e d0 25 6f be
       -0.17303644 0.07433905 0.20260134 -0.23354268
000220 f7 0a b3 3e 05 bb d1 bd f1 bd a8 be b4 0e 5f 3e
       0.34969303 -0.10240749 -0.32957414 0.21782953
000230 f5 6c a2 bc 0d 6b 31 be b1 5a a7 3c e5 53 9f 3d
       -0.019827345 -0.17325993 0.020428987 0.077796735
000240 77 88 6e 3c cd ae 80 3e 82 7e 75 bd 9b 02 b6 be
       0.014558903 0.25133362 -0.0599351 -0.35548863
000250 5f 95 89 3e 78 34 41 3e 48 5a 6b bd 82 43 17 be
       0.26871774 0.18867671 -0.057459146 -0.14771846
000260 41 fc 6f 3e 32 10 20 be 50 94 f7 3d 1d e6 e3 bd
       0.23436071 -0.15631178 0.12088835 -0.11127875
000270 fd 9f 51 be fd dc 1d 3e d7 c3 1e 3e 78 82 3f be
       -0.20471187 0.15416332 0.15504394 -0.18702114
000280 81 5b 0b bc 60 3b 08 3d 72 ae 6a 3e 9a 98 80 bc
       -0.008505703 0.03325975 0.22918108 -0.015697766
000290 eb d7 7b be ee 89 05 be 10 95 e6 3d db cd 03 3e
       -0.24594085 -0.13040897 0.112589 0.12871496
0002a0 c5 23 73 be 1a a8 c6 bd 3d 7b 5c 3e b0 44 15 3c
       -0.23744114 -0.097000316 0.21531387 0.009110615
0002b0 47 e7 38 3e 26 89 b8 be 98 e0 f3 bd f2 36 67 3e
       0.18056975 -0.36042136 -0.11908072 0.22579554
0002c0 ef bb 62 bd ea 85 c2 3d ba bc 4f be 1b 45 29 3e
       -0.05535501 0.09498198 -0.20286837 0.16530268
0002d0 50 f6 0a 3e 28 25 36 38 aa 57 42 bd 15 10 d3 bd
       0.13570523 4.3426786e-05 -0.047446884 -0.10305802
0002e0 e7 36 a5 bc 49 39 19 3e 08 11 d4 bd 93 25 d6 bc
       -0.020167781 0.14963259 -0.10354811 -0.026140964
0002f0 ae 4e 2f 3e 9d 38 38 be 72 ca a7 3d 07 5a 38 be
       0.17119858 -0.17990346 0.0819291 -0.18003093
000300 d9 7d 5f be ee 24 20 bd a8 7c 74 be a3 43 ee bb
       -0.21825351 -0.03909772 -0.23875678 -0.0072712465
000310 e9 69 3f 3e e2 af 0b bd 4e 07 d0 be e8 1d 16 3e
       0.18692745 -0.03410328 -0.40630573 0.14659846
000320 8c 9a 1f 3e 00 92 27 3d 54 56 b8 3b 52 3f 9d 3d
       0.15586299 0.04091072 0.0056255255 0.07678093
000330 65 5f 11 be a8 a9 48 3d ba a4 d8 bb 93 51 b1 be
       -0.14196546 0.04898992 -0.006611434 -0.3463255
000340 6e 73 17 be 43 12 a4 3e e0 96 21 bd 6b 61 8e 3e
       -0.14790127 0.32045183 -0.039450526 0.278087
000350 ec 27 8a 3e a1 3c 26 3e d5 2c b1 3e 03 38 fd 3d
       0.26983583 0.16234066 0.34604517 0.12364199
000360 e5 2a 69 3e bd ca 33 be 8a 37 97 bd ea 75 89 bd
       0.22770269 -0.17557807 -0.0738364 -0.067119434
000370 db 71 a9 bc 99 7d a3 3e ea 8d 4f be ed 0b 8b be
       -0.020684173 0.3193176 -0.2026898 -0.27157536
000380 5a 6d 35 3e ae 1e 8e 3d a4 57 57 3d 2e 1c c1 bd
       0.17717496 0.069394454 0.052573815 -0.09429203
000390 90 08 9f be e0 c6 9b 3e fa 37 16 3e 67 4c 37 be
       -0.3106122 0.30425167 0.14669791 -0.17900239
0003a0 0f 93 94 be 48 9b 9f 3e fa 62 37 3e e6 20 2d be
       -0.29018447 0.31173158 0.1790885 -0.16907081
0003b0 61 a4 bd bd a1 05 06 be d5 81 9a 3e 28 19 b8 3d
       -0.092598684 -0.13088085 0.3017718 0.08989173
0003c0 79 30 2a be f7 fb 3f be 1f 85 51 3e a9 1c e4 bd
       -0.16620053 -0.1874846 0.20460938 -0.11138279
0003d0 44 db fb bc 7e 20 78 3e 7d 0a 1b 3d 31 78 5a bd
       -0.030744202 0.24231145 0.0378518 -0.05333728
0003e0 80 e4 38 bd 29 54 19 be 9c 9b 77 3d de 64 8d bd
       -0.04513979 -0.14973511 0.060451135 -0.069040045
0003f0 4b 51 4e bd 03 f3 90 bd e4 67 5a 3d ce 8d 6c bd
       -0.050370496 -0.07077601 0.053321734 -0.057752423

layer1.0.bias f4 [32]
000000 5e 21 de bc 1b ad 7f bc e6 d6 42 3e 36 b2 38 bb
       -0.02711552 -0.015605236 0.1902729 -0.0028182394
000010 af 2e a2 be a6 50 a5 bb 0a d5 97 3d 9d b1 3c be
       -0.31676242 -0.0050450144 0.07413681 -0.18427129
000020 50 b8 ea bc 15 9a 59 3b 45 16 ec bb 28 dd 89 3d
       -0.02865234 0.0033203412 -0.007204803 0.06731635
000030 c0 64 34 be 90 84 e3 3c 32 63 ee bd 82 45 ef bc
       -0.17616558 0.027773172 -0.11640014 -0.029207949
000040 a7 47 3a bd 68 93 1e bc a5 a6 dc be bc 9b ab bd
       -0.04547849 -0.009678699 -0.4309589 -0.08379313
000050 5d 68 57 be 8a f7 ae bd c6 b4 a3 be 09 c9 f7 3d
       -0.21035905 -0.08543308 -0.31973857 0.12098891
000060 36 b5 a7 bd f5 b2 29 be 64 97 99 be 34 c8 c5 bc
       -0.0818886 -0.16572173 -0.29998314 -0.024143316
000070 9e f8 30 3a cd 4f 9d 3b 32 19 bf be 4a 1d 02 bc
       0.0006750914 0.0048007728 -0.3732391 -0.007941553

layer2.0.weight f4 [64, 32, 3, 3]
000000 56 45 6b 3d b6 fe 05 3d a3 0e 5f bd b5 d3 a8 3d
       0.05743917 0.032713614 -0.054457318 0.08243505
000010 26 16 ed bc 70 64 46 3d 26 7b 83 3b 45 20 a9 bc
       -0.028941225 0.04843563 0.004012483 -0.02064527
000020 c9 ee a1 bd f4 c0 88 3d 12 fa 56 3b 61 e9 c9 bd
       -0.07906873 0.06677428 0.0032802862 -0.098589666
000030 f0 03 4e 3d b5 28 20 3d c3 72 77 bd d1 d0 e7 bd
       0.050296724 0.03910132 -0.06041218 -0.113191254
000040 bc 8c 37 3d 16 f0 61 bd 1d 43 e1 bd 33 7b 1f bd
       0.04481195 -0.055160604 -0.10999129 -0.03893585
000050 07 a7 21 3d 01 ea 2f be a8 fb 4d 3d 38 49 04 3e
       0.03946593 -0.17179109 0.050288826 0.12918556
000060 a7 08 54 be 70 26 86 3d 9e 14 43 3e 7b b5 b7 bc
       -0.20706426 0.065503 0.19050834 -0.022425404
000070 b6 96 4c 3d e7 62 84 3d 3d 68 6f 3c 91 f2 7a 3d
       0.049948417 0.064641766 0.014612255 0.061266486
000080 e4 f6 14 bd d2 47 64 3d 66 61 d3 3a ff b7 db 3a
       -0.036368266 0.055732556 0.001612705 0.0016763209
000090 6a 60 0b bd 0e a2 23 bd fe 94 c2 bd ed 02 74 bd
       -0.034027494 -0.03994947 -0.09501074 -0.059573103
0000a0 82 f9 3a 3d 53 99 0c be a5 50 31 3c f6 f5 7e bd
       0.045648105 -0.13730364 0.01082245 -0.062246285
0000b0 6e c6 3f be df eb 24 3e 1a fb 21 3c b1 c9 70 bc
       -0.18728039 0.16105603 0.009886527 -0.0146965245
0000c0 a5 81 49 3e e1 7a 10 3e f3 b6 d1 bc 03 69 89 3d
       0.19678362 0.14109375 -0.025599932 0.067094825
0000d0 21 60 80 3d 20 80 20 3d a5 e8 40 3e 53 fb a4 3b
       0.06268335 0.03918469 0.18838747 0.005034843
0000e0 fa 9b 93 3c 4e 82 46 3e 5c 8b c0 3d f7 52 8b 3c
       0.018018711 0.19385645 0.09401581 0.017007334
0000f0 de a8 84 3d b1 2c d1 3d be c0 2a 3e fe 61 af bd
       0.06477521 0.10213602 0.16675088 -0.085636124
000100 0a b1 6a 3e e7 ae 79 3e 38 34 28 be 9d 35 35 3e
       0.22919098 0.24383126 -0.1642617 0.17696233
000110 fd fd 28 3e c9 5c 97 be 6c 22 f7 3c 45 70 1b 3d
       0.16503139 -0.29562977 0.03016778 0.037948865
000120 a9 1a 56 3e 31 b3 3b bc 6c 75 05 bd 74 46 4f 3e
       0.20908608 -0.011456297 -0.032582685 0.2024172
000130 7f 99 1f 3e e5 2e ee bc f9 c2 47 3c 90 eb 2c 3e
       0.15585898 -0.029075095 0.012192481 0.16886735
000140 18 e6 33 3e 35 8c 69 bb fc 6d 48 3b 10 de 19 bd
       0.17568243 -0.0035636548 0.0030583134 -0.03756529
000150 3b 3c 22 3d 81 a9 c2 bc b9 26 15 3d 9a 6a 38 3d
       0.03960822 -0.023762466 0.036413882 0.04502354
000160 c3 39 b1 3c b8 8d 24 3c 38 a2 ec 3c cd 65 ae bd
       0.021633988 0.010043554 0.028885946 -0.08515511
000170 8c 8d 42 bd 27 7d bd 3d 6b 91 eb 3c 1a 1a 2d 3c
       -0.04749827 0.092523865 0.028755864 0.010565305
000180 21 d8 0a 3e 69 bf 15 bc 23 a6 51 3b e3 3c 90 bd
       0.13559009 -0.009139874 0.0031989894 -0.07042863
000190 70 81 27 be fb 4e 29 bd 83 1c 00 be 71 b0 0d be
       -0.1635797 -0.041335087 -0.12510876 -0.13836838
0001a0 7b 07 30 3d 70 84 39 3d d9 98 43 bd 1a 57 31 3d
       0.042975884 0.045292318 -0.04775319 0.043295957
0001b0 ee ca 40 bc b5 0f 13 3c 43 8a 9f 3d e3 be b2 3d
       -0.011767132 0.008975913 0.07790043 0.08727815
0001c0 80 d0 ee bb 1f cd bf 3d b4 09 06 3e 59 a4 12 3e
       -0.0072880387 0.093652956 0.13089639 0.14320506
0001d0 85 a5 09 3e 39 a5 41 3d c8 d6 14 bd bf ef 83 bd
       0.13442047 0.04727671 -0.036337644 -0.06442212
0001e0 1f 8f a1 3d 16 05 17 bd 0c c7 32 bd c8 9c 92 3d
       0.07888626 -0.036870085 -0.043646857 0.0715881
0001f0 8b 82 29 3d 1c b2 cc bb 1c 31 6c bd 00 eb 51 be
       0.04138426 -0.006246818 -0.05766402 -0.20499802
000200 8f 40 9c bd e0 ce 07 bd 6d 1b 12 be 6a 4d b6 bd
       -0.07629501 -0.033156276 -0.14268275 -0.08901484
000210 a2 1d d1 3a ea 6a a6 bd 51 89 9b bd 48 b8 9f 3c
       0.0015954266 -0.08125861 -0.075945504 0.019497052
000220 fd b4 a8 bd 0d 54 b3 bd f5 81 50 3c 99 60 32 be
       -0.08237646 -0.08756266 0.012726297 -0.17419662
000230 9b 64 a5 bc 55 86 07 3e 63 62 80 bd d8 b0 40 bd
       -0.020189574 0.13234837 -0.06268766 -0.04704365
000240 31 51 94 3b ad 50 11 3d 04 77 54 bd a5 58 18 3e
       0.0045262803 0.03547733 -0.051871315 0.14877565
000250 8b 64 f8 3d 0a c6 06 bd e0 78 64 bd 18 b6 22 3e
       0.12128552 -0.03290371 -0.055779338 0.15889776
000260 02 bd b5 bd e7 02 da 3d d6 23 7a 3d 0f 5b 08 be
       -0.08873941 0.10645085 0.061069332 -0.13315986
000270 9a d0 88 3d ab 47 ff 3c 70 09 b1 3b 3b 10 8e 3d
       0.066804126 0.031162104 0.0054027364 0.069366895
000280 dc 8f 07 3e bb 35 44 bc b8 e9 cc 3c 11 86 b0 bd
       0.13238472 -0.011975701 0.02501379 -0.08619321
000290 77 4f 0e bd cb dd ff bc 57 42 45 be ff 66 d0 3b
       -0.034743752 -0.031233689 -0.19263588 0.0063599343
0002a0 50 16 89 bd f6 c0 11 be a9 3f a6 bb d2 65 c6 bd
       -0.06693709 -0.14233765 -0.005073507 -0.096873894
0002b0 65 bf cf bd b4 a1 c2 bd 70 fd 89 bd 9f 53 db bd
       -0.101439275 -0.09503499 -0.067377925 -0.10709309
0002c0 28 db 48 be 3c 82 28 bd aa 4f 70 bd 8b e3 03 be
       -0.19614851 -0.041139826 -0.058669724 -0.1287977
0002d0 9b 4a 4e 3d 45 51 0a 3c 2b a5 a2 3c 49 46 f7 3d
       0.050364118 0.008442228 0.019854149 0.12073953
0002e0 dd ec 5f bc 06 6d 07 3c f6 d2 cc 3d 1f c8 ae 3c
       -0.013667312 0.008265739 0.10001175 0.02133566
0002f0 ce 8f 0e bd f0 e3 e0 3d 42 44 2f bd 7c 88 0e bd
       -0.03480511 0.10980976 -0.042789705 -0.03479813
000300 83 87 05 3e 00 c1 03 3c 18 81 e9 bc 6a 1a 18 3e
       0.13039975 0.00804162 -0.02850394 0.14853826
000310 81 67 ae 3c 17 84 34 bd ea 06 ea bd 89 f4 17 be
       0.021289589 -0.044071283 -0.114271 -0.14839377
000320 2c 1d 4e bd 2a 2b e7 bd 9c 48 c8 bd 8b 3a 37 bd
       -0.05032079 -0.1128753 -0.09779474 -0.044733565
000330 ca aa 40 3c cd 64 09 bd c8 58 d9 3d 54 6e d8 bd
       0.011759469 -0.033543397 0.10612637 -0.105679184
000340 11 21 b3 bb 41 a5 b6 3d c6 25 21 be 07 e6 c3 3c
       -0.0054665883 0.089182384 -0.15737066 0.023913397
000350 b6 86 1c 3e 92 05 4a be bd 63 26 3d 7d f7 3c 3e
       0.15285763 -0.19728687 0.04062246 0.18453784
000360 19 12 33 be 84 94 49 be 54 d5 4a be d6 4f 49 be
       -0.17487372 -0.1968556 -0.1980794 -0.19659361
000370 c7 e8 b4 be 1d e5 6a be 92 ab 3a bc 36 ee 14 be
       -0.35333845 -0.22938962 -0.011393445 -0.14543995
000380 94 50 86 be be 92 36 be f8 59 3a be fc 47 98 bd
       -0.2623335 -0.17829415 -0.18198383 -0.07435605
000390 31 8a d7 bd 7c b4 0d be 03 84 88 be 65 69 3d bd
       -0.10524405 -0.1383838 -0.26663217 -0.04624309
0003a0 b1 4e 58 bc 1b c5 1b be df 27 31 bc 4a d5 58 bd
       -0.013202355 -0.15211909 -0.010812729 -0.052937783
0003b0 ae 44 3b be 53 77 63 bd 2b da 1e 3d 4a 12 54 bd
       -0.18287918 -0.05553372 0.03878228 -0.051775254
0003c0 04 dd 59 be 3c 90 a0 3c 2e 63 9c bc 4a 02 e1 bd
       -0.21275717 0.019600026 -0.019090261 -0.10986765
0003d0 78 9a 43 be f4 93 a0 bd b0 86 1b be b5 57 19 be
       -0.19101894 -0.0784072 -0.15188098 -0.14974864
0003e0 c7 c8 da bd 08 03 25 be 6d 7d e0 bd 72 ae 98 bd
       -0.106828265 -0.16114438 -0.10961423 -0.07455148
0003f0 6b cc 4c be ef 71 35 3d 61 ed 00 3e 0f 81 8b be
       -0.19999854 0.04429811 0.12590553 -0.272469

layer2.0.bias f4 [64]
000000 1c f3 09 3e 98 6c 01 bd 95 4c 00 3e d3 aa bf 3d
       0.13471645 -0.031597704 0.12529214 0.09358754
000010 43 28 fb 3d 66 61 50 3c 41 87 22 3c 54 2d fd 3d
       0.12263539 0.012718534 0.009919942 0.12362161
000020 2c 87 85 3e c5 16 a3 bd 84 eb ac bb d6 69 87 3e
       0.2607969 -0.07963327 -0.005277099 0.26447934
000030 c9 9a 09 3e e0 a7 02 be 9f 5d 1e be 4e 71 a6 3d
       0.13437952 -0.12759352 -0.15465401 0.0812708
000040 ac 64 18 3e fa 17 00 3d cd 43 37 bd 88 da fd 3c
       0.14882153 0.031272866 -0.044742394 0.030987993
000050 c2 08 99 3c 5d d0 73 bd 72 87 3d bd a0 f7 2c 3c
       0.018680934 -0.059524883 -0.04627175 0.010557085
000060 03 cd a9 bd 5f a2 1b bd 7f 79 ab bd f7 2a 97 3d
       -0.08291056 -0.037996646 -0.08372783 0.07381242
000070 58 4c 4c bd d9 d8 44 3e a1 b0 13 3e 70 1a 38 bc
       -0.049877495 0.19223346 0.14422847 -0.011236772
000080 e5 04 9c 3e 20 7e 44 3b b0 ab a4 3c 65 c4 69 3d
       0.30472484 0.0029982403 0.020101398 0.057072062
000090 7b 10 58 bd 9b f4 66 bd b3 f9 9c 3d eb 99 2e 3e
       -0.052750092 -0.056385618 0.07664814 0.17050903
0000a0 33 d7 53 bc ee da 42 be fa 79 ef 3b 91 fd 4d 3d
       -0.012929725 -0.19028828 0.007308242 0.050290648
0000b0 9e b0 c2 bd 0a 29 9c bd 73 1c f6 3d 31 aa aa bd
       -0.09506343 -0.07625015 0.12017145 -0.08333243
0000c0 d1 8d 34 bd e3 83 66 be fa 55 12 be 8f ea 2f 3e
       -0.04408056 -0.22511248 -0.1429061 0.17179321
0000d0 d7 4d 96 bd 7e 9c 77 be 9c f4 a7 3c 6d ed 69 bd
       -0.073390655 -0.24180791 0.020502381 -0.057111192
0000e0 24 eb 7c 3d 5e 06 31 3e 11 4e 2e be 73 f7 99 bd
       0.061747685 0.17287585 -0.17021967 -0.075179
0000f0 9a 03 4d 3e 35 d2 07 be 8d f4 0b be fe c9 78 be
       0.20020905 -0.13263781 -0.13667507 -0.24295804

fc.weight f4 [10, 4096]
000000 dc fc 23 3d 9f 29 86 bd d6 d7 82 3d 0f c6 ee bd
       0.040036067 -0.06550907 0.06388824 -0.116588704
000010 86 54 39 bd f0 90 13 be a8 e3 b3 bd eb 2e 3c bc
       -0.045246623 -0.14410758 -0.08783656 -0.0114857955
000020 19 48 8f 3d d6 bf de bc a2 21 f4 bc e6 31 54 3d
       0.069961734 -0.027191084 -0.029801194 0.0518054
000030 13 a6 ff 3d e7 e4 22 3d 30 00 55 bd e3 5d a8 bd
       0.12482848 0.03976908 -0.052002132 -0.082210325
000040 6f 98 22 3c 00 9a 44 3e 0f af 2a 3e 93 9e 97 bc
       0.009924038 0.19199371 0.16668342 -0.018508231
000050 a7 89 b0 bc cf db 3d 3e ec 55 ca bd 14 8d c3 3d
       -0.021550013 0.18540882 -0.098796695 0.09548393
000060 1d 19 16 bd f9 b1 9d 3c da f2 4e 3d 1a a0 78 bd
       -0.036645044 0.019249903 0.05052457 -0.06069956
000070 3e d8 77 bd d9 d6 9a 3d 8c e3 5b ba fc 8f 11 3e
       -0.06050896 0.0756051 -0.0008388094 0.14215082
000080 a3 d1 29 3d b1 1d eb bd c2 02 f2 3d db a2 42 bd
       0.04145969 -0.114802726 0.11816932 -0.047518592
000090 d8 9b 23 be 70 d5 6b bd 6a 12 50 be 56 f0 96 bc
       -0.15977418 -0.057576597 -0.20319524 -0.018425148
0000a0 ce 6e 89 3c 8c 67 30 be d5 dc fd 3c 31 8e 69 bc
       0.016776469 -0.17227 0.03098909 -0.0142550925
0000b0 95 b7 02 3e f7 62 cf 3b 10 5d b9 bd cf 01 32 be
       0.12765343 0.006328936 -0.090509534 -0.17383502
0000c0 90 55 6f 3c 1d 6f 0a be de 41 b6 bd 1b 51 eb bd
       0.014607802 -0.13518949 -0.08899282 -0.11490079
0000d0 8f 68 47 bc 70 d7 18 bd eb c7 08 be 76 64 63 be
       -0.012170925 -0.037314832 -0.13357513 -0.22206292
0000e0 a1 7e 9d 3d 5e 02 b4 bd ab 66 a6 bc 41 5f 5d bc
       0.07690168 -0.08789514 -0.020312628 -0.01351148
0000f0 bc 3f 09 3c 11 89 b6 bd 52 46 b5 bc bd 6a 9b bc
       0.008377012 -0.08912862 -0.022128258 -0.018971795
000100 13 4d 3c 3d ac 47 12 3e 39 68 8f 3d 04 8c 56 3d
       0.04597194 0.14285153 0.07002301 0.052379623
000110 3e a6 f9 bb 2e 47 aa 3d e0 d5 0c 3e 50 2c c7 bc
       -0.0076186946 0.08314358 0.13753462 -0.024313122
000120 ad 9a 03 bc fb bb 38 3d e3 25 ba bd 5e 11 cf bb
       -0.008032483 0.045101147 -0.090892576 -0.006319209
000130 fa 66 26 3d bf 7d c5 3c e1 91 c4 bc 93 d4 24 be
       0.04062555 0.024107812 -0.023995342 -0.16096716
000140 17 73 93 3d c4 7f aa 3d 2e a2 5f bd 18 af 6d bd
       0.07199686 0.083251506 -0.054598026 -0.05802831
000150 0e d1 3d 3d a3 80 0c be f5 37 86 bd d1 66 44 bd
       0.04634195 -0.13720946 -0.06553642 -0.047949616
000160 95 ea 0d 3e b7 c3 06 3e 45 3e f8 3d a1 c2 06 3e
       0.13859017 0.13160597 0.12121252 0.13160183
000170 88 3b 93 3d bb 68 c6 3d 26 77 c6 3d 43 53 e5 bd
       0.07189089 0.096879445 0.096906945 -0.111975215
000180 f5 94 ea 3d 2d 5b 72 3e 19 9a ea 3d 0c 05 13 3d
       0.114541925 0.23667593 0.11455173 0.035893485
000190 c5 a0 4c bd ca b3 67 bc ba 33 cf 3d b8 3b ea 3c
       -0.04995801 -0.014141986 0.10117288 0.02859293
0001a0 10 2a 82 3d d7 a3 50 3e 01 bb 0a 3e a7 02 dd bd
       0.06355679 0.20375 0.13547899 -0.107915215
0001b0 8d 3c 1d be bf 64 23 be f1 bf 79 3d 43 6b 33 3d
       -0.1535513 -0.159564 0.060974065 0.043803465
0001c0 72 5f 37 3e 40 9c 29 3e d8 8b 9c 3c ed 3f 3e 3d
       0.17907503 0.16563511 0.019109651 0.046447683
0001d0 e9 be 84 bc be 8a 84 bd 2b d4 30 3c 7c e6 dd bc
       -0.016204314 -0.064717755 0.010792772 -0.027087443
0001e0 64 5c 57 bd 27 75 d1 3a 85 77 b6 3c d3 b5 c3 3d
       -0.052578345 0.0015980349 0.022273788 0.095561646
0001f0 7e 4a 88 bd 13 7d f8 bd f5 9a 84 3c e0 18 b4 3d
       -0.06654833 -0.12133231 0.01618717 0.08793807
000200 b4 37 0b 3e 47 5e 0c 3d 7c b4 9b 3b 50 6e 67 bb
       0.13595468 0.034269597 0.00475174 -0.0035313554
000210 2f bc c9 3d 83 08 52 bd ca 25 62 3d 99 6b 3c 3d
       0.09850346 -0.05127765 0.05521182 0.04600105
000220 e0 81 21 3c b7 33 04 3b b9 43 35 3e 03 9c 65 3c
       0.009857625 0.0020172426 0.17701615 0.014014247
000230 93 35 06 3e 33 56 90 ba 1f f2 37 3d 1b e4 ec bd
       0.13106374 -0.0011012017 0.04490864 -0.11566945
000240 60 4c ea 3c e6 bd 01 3e 73 d4 0e 3e a9 91 29 bd
       0.028600872 0.12670097 0.1394823 -0.041398678
000250 cf cd 57 bd ac 1d 42 3d 1a 53 0c 3e 06 e1 df bd
       -0.05268651 0.04739158 0.13703576 -0.10931592
000260 74 0a a0 3c 34 e4 96 3d d3 03 08 3e 4d e1 f9 3d
       0.019536234 0.07367745 0.13282709 0.12201176
000270 d7 61 51 bc 61 45 10 3d 0a 81 73 3d c3 a5 b5 bd
       -0.0127796745 0.035222415 0.059449233 -0.08869507
000280 e3 8a 00 be a8 d7 ad 3d 46 25 6e 3d 72 6c d4 bd
       -0.12552981 0.08488399 0.058141015 -0.10372247
000290 20 ce c8 ba eb 49 dd bb 07 0a 5c 3e 94 01 b7 3b
       -0.0015320219 -0.0067531965 0.214882 0.005584905
0002a0 e7 51 5c 3d 8c 22 14 3e 3f 8c 1a 3d 41 86 39 bd
       0.053789046 0.14466304 0.037731405 -0.04529405
0002b0 22 05 b3 3c 1e a9 7c bd 7d c4 1b 3e c3 7e d6 bb
       0.021853033 -0.06168472 0.15211673 -0.006545873
0002c0 b9 d2 17 3e 33 e8 32 3d 02 80 45 bc 4a fa 02 3d
       0.14826478 0.043678474 -0.012054445 0.031976976
0002d0 57 03 60 bc 1b a3 84 3d f5 37 f1 3d 7c 8c 84 bc
       -0.013672671 0.064764224 0.11778251 -0.01618027
0002e0 80 8d 0e 3e 64 c7 2c bd 1e 6b 54 bd ac 22 1e bb
       0.13921165 -0.04218234 -0.051859967 -0.0024129553
0002f0 13 0c f2 ba fb 56 2d 3a 71 cf a5 3c e8 ef f0 3d
       -0.0018466733 0.00066123874 0.020240517 0.117645085
000300 5a 01 c3 3b e3 49 10 bd 02 13 35 3c 64 14 d3 bc
       0.005951089 -0.035226714 0.011051895 -0.025766559
000310 8f 6c 17 bc 2d 56 71 bd 81 e6 ac bc 4b 7b ae bd
       -0.009242191 -0.058920074 -0.021106007 -0.0851961
000320 27 13 4a 3c f9 ac 75 3d 91 34 8c 3d a6 23 2a 3d
       0.012333668 0.059979413 0.06845964 0.041537903
000330 c0 fa fa 3c 8e d1 8a bc 6d 34 78 bd 2c eb c8 bd
       0.030637145 -0.016945627 -0.060596872 -0.098104805
000340 1d cd f5 bd 31 7b 8a bd 16 60 4d 3d 33 63 80 3d
       -0.12002013 -0.06761778 0.050140463 0.06268921
000350 ac 6a aa bc 19 a4 a7 3c 19 1d 3e 3c c0 45 f3 bd
       -0.020802818 0.02046399 0.011603617 -0.11878538
000360 f1 c1 82 bd 9f 4d 8b bd fb f9 74 3d a4 5f 54 3e
       -0.06384648 -0.068019144 0.059808712 0.20739609
000370 e7 80 e8 3d 84 a6 4d bd b7 0f 17 3c d2 91 b6 bb
       0.11352711 -0.05020763 0.009220055 -0.0055715824
000380 b9 f1 ea 3c f9 b9 28 3c 5d 37 1d 3c 6f 7b 88 3d
       0.028679715 0.010298246 0.009595719 0.06664168
000390 13 21 3b be 90 ce eb bb 52 26 e4 3c 92 7a 95 3d
       -0.18274336 -0.007196255 0.027850304 0.07298769
0003a0 ac 36 b4 3d 72 5d 49 3d d2 e4 14 bd cf 0c 44 3e
       0.0879949 0.049161382 -0.036351033 0.19145511
0003b0 ff 1e e6 3d 67 1f 2c 3e 98 9d 13 3d 60 e5 73 3d
       0.11236381 0.16808854 0.036038965 0.05954492
0003c0 06 cf 0e 3e 31 b6 24 3e c2 93 52 3d 91 76 d0 3d
       0.1394616 0.16085126 0.051410444 0.10178865
0003d0 0b f1 a2 3d 6f fe e9 3d af 37 f3 3d 6b 15 a2 3c
       0.079561315 0.114254825 0.11875855 0.019785604
0003e0 42 28 e3 3d c0 f6 a6 3d 3e 8f 69 3d d9 c9 6a 3d
       0.11091663 0.081525326 0.057021372 0.057321403
0003f0 26 9a 8c bc ea 59 a6 3d e0 4d 0f 3d 5e 22 31 bb
       -0.017163347 0.081226185 0.034986377 -0.002702854

fc.bias f4 [10]
000000 83 ef 9a bd aa d9 01 be 40 d3 aa 3c 6b ef 55 3c
       -0.075652145 -0.12680689 0.020852685 0.01305757
000010 f8 1c 3e 3e dd b6 5e bd 64 da 55 3d 72 46 77 bd
       0.18565738 -0.05437361 0.052210227 -0.060369916
000020 b6 5c a9 3d 14 2d a8 bd
       0.08269636 -0.08211723
