models/mnist_cnn_v1.pth (torch, 203921 bytes, 6 tensors)

layer1.0.weight f4 [32, 1, 3, 3]
-0.30649734 -0.021520995 -0.33998403 -0.14631793 -0.20430826 -0.22796157 -0.24104415 -0.31331933
-0.071942076 -0.088310115 -0.0036228276 0.076472566 -0.2645741 -0.10157955 -0.19451602 0.35263342
0.06554295 0.2056352 -0.2572796 -0.16562562 0.1456129 0.3441899 0.042961106 -0.09817132
0.2892942 0.26951295 -0.31088695 0.28498936 0.34166226 0.22655693 0.37420002 0.21361779
0.29871434 0.1332529 0.4399933 0.3352857 -0.64451426 -0.2753498 0.3032311 0.017627524
0.37937644 0.40803775 0.21408828 0.21510571 0.041061293 0.34983528 -0.31173843 0.112396695
0.07074479 -0.123693384 -0.4064339 0.45931762 0.3565906 -0.38145947 -0.27050433 -0.30850783
0.042582415 0.053183563 0.33300683 0.077432334 0.19712678 0.10523932 -0.034485385 0.35562634
0.21416056 -0.1911439 -0.20139244 -0.14671212 -0.13994798 -0.010760364 -0.25077996 0.2756588
0.15508468 0.2574474 -0.36971667 -0.29108307 -0.14233214 -0.1723627 0.24058136 -0.3357262
-0.14500712 0.25884378 -0.45666155 -0.458027 0.37601444 -0.059590627 -0.3250317 0.4019246
0.37252384 0.24251336 -0.2118374 -0.08244093 -0.007965744 0.38805768 0.0528321 0.4639576
0.06677914 -0.24492364 -0.41605547 0.5212635 0.34952787 -0.08969666 0.46337357 -0.3063905
-0.27020925 -0.2942293 -0.4604096 -0.051974174 -0.2580454 0.30252934 0.08145519 -0.512743
0.051257245 0.3251277 -0.18157592 0.14632526 0.23606145 0.41993445 0.3199308 -0.06253161
-0.03376003 0.114205115 -0.46633905 0.14333367 -0.14163044 -0.17983451 0.41371357 0.13850892
0.43728554 0.10428339 0.24883674 0.103936166 -0.15880878 -0.41702557 -0.30997282 0.39298588
0.49763486 0.48137483 -0.22230794 -0.20534171 -0.20772311 -0.38439298 -0.2624676 -0.27728894
0.085633844 -0.1425818 -0.27791247 0.40163052 -0.19742528 -0.11450866 0.100386895 0.3296678
0.22163837 -0.09454655 0.22725734 -0.11643463 0.3611081 -0.15459086 -0.079667225 0.34516808
-0.021713037 -0.49118033 0.43144488 -0.17918245 -0.1648297 -0.039531846 -0.13287082 -0.15442668
0.4889937 -0.12262633 -0.32623795 0.16354614 0.16423482 -0.19908346 -0.008221146 0.19873294
-0.43996865 0.3567697 0.24125355 -0.23081069 -0.13777682 0.20487943 0.4245892 0.19975503
-0.23295644 0.24396801 -0.21129322 -0.32071036 -0.18664142 0.09139391 0.49335888 0.16069677
-0.31844375 -0.15442312 0.3567344 -0.3636668 -0.1587805 -0.18172593 0.22871886 -0.13220051
0.3144124 -0.12154303 -0.1810436 0.3540699 -0.32684067 -0.07712648 0.3657367 -0.005496147
0.14245868 -0.16196248 0.019039037 0.3554612 -0.3618637 0.29612422 0.12157334 -0.13418409
-0.33742833 -0.44190475 -0.34292164 0.12522599 0.22071935 -0.19522624 0.2906438 0.18204673
0.43056178 -0.18057652 0.21165746 0.16745976 0.02963429 0.16733982 -0.2359201 0.04621132
-0.033385124 -0.02882775 -0.06132649 0.23786847 0.38465393 -0.04087126 -0.03822273 0.3836491
0.25096804 0.40763786 -0.11342869 -0.050090905 0.38018733 0.09461713 -0.22701684 -0.3110111
-0.09230357 -0.23739253 0.17919472 -0.105951816 0.4601249 -0.026000297 -0.34731978 -0.1127343
00000000: 38ed 9cbe cc4c b0bc 6312 aebe 5ed4 15be
00000010: 2f36 51be c26e 69be 47d4 76be 646b a0be
00000020: 5e56 93bd efdb b4bd f66c 6dbb a69d 9c3d
00000030: 4276 87be f008 d0bd 352f 47be 5e8c b43e
00000040: 623b 863d 0992 523e 27ba 83be c399 29be
00000050: 8c1b 153e a939 b03e fcf7 2f3d 0c0e c9bd
00000060: 5f1e 943e 9afd 893e 932c 9fbe 20ea 913e
00000070: 5bee ae3e 8afe 673e 2597 bf3e 9fbe 5a3e
00000080: 16f1 983e 7373 083e cd46 e13e 91aa ab3e
00000090: e3fe 24bf a6fa 8cbe 1b41 9b3e 9967 903c
000000a0: a13d c23e 53ea d03e f539 5b3e ac44 5c3e
000000b0: e32f 283d 9c1d b33e 2e9c 9fbe 3d30 e63d
000000c0: a5e2 903d f552 fdbd 1b18 d0be ae2b eb3e
000000d0: 0b93 b63e a84e c3be 8b7f 8abe bdf4 9dbe
000000e0: e66a 2e3d 02d7 593d df7f aa3e d894 9e3d
000000f0: 9adb 493e b687 d73d 8c40 0dbd a814 b63e
00000100: e84c 5b3e 3abb 43be d239 4ebe b43b 16be
00000110: 864e 0fbe 3d4c 30bc 3b66 80be 2623 8d3e
00000120: 85ce 1e3e 25d0 833e 814b bdbe d708 95be
00000130: 84bf 11be d97f 30be f65a 763e 4ee4 abbe
00000140: bf7c 14be 2c87 843e 8bcf e9be 8482 eabe
00000150: f784 c03e 4d15 74bd 8e6a a6be 10c9 cd3e
00000160: 72bb be3e 6c55 783e e7eb 58be cad6 a8bd
00000170: c082 02bc 7faf c63e 7966 583d da8b ed3e
00000180: 80c3 883d 43cd 7abe 3905 d5be 8671 053f
00000190: 51f5 b23e e2b2 b7bd 4d3f ed3e 37df 9cbe
000001a0: de58 8abe 39a5 96be cfba ebbe dfe2 54bd
000001b0: 871e 84be 20e5 9a3e fbd1 a63d 2043 03bf
000001c0: 1ef3 513d 2377 a63e 0aef 39be 4ad6 153e
000001d0: 18ba 713e a601 d73e f8cd a33e 9310 80bd
000001e0: f547 0abd 5fe4 e93d fec3 eebe 10c6 123e
000001f0: 9207 11be 8a26 38be 44d2 d33e 48d5 0d3e
00000200: e4e3 df3e 8892 d53d 0fcf 7e3e 7cdc d43d
00000210: c59e 22be 6084 d5be c2b4 9ebe 7235 c93e
00000220: ffc9 fe3e c376 f63e b1a4 63be 1945 52be
00000230: 5eb5 54be 28cf c4be 2762 86be d1f8 8dbe
00000240: cc60 af3d f700 12be 8b4a 8ebe 84a2 cd3e
00000250: da29 4abe 8483 eabd a597 cd3d 38ca a83e
00000260: 2bf5 623e 9fa1 c1bd 26b6 683e 4775 eebd
00000270: 29e3 b83e 114d 1ebe 9228 a3bd dfb9 b03e
00000280: 8adf b1bc fd7b fbbe 58e6 dc3e 9b7b 37be
00000290: 1ec9 28be 25ec 21bd 4a0f 08be 0722 1ebe
000002a0: 625d fa3e 8323 fbbd a908 a7be a478 273e
000002b0: 2c2d 283e 89dc 4bbe fcb1 06bc a680 4b3e
000002c0: 9243 e1be 85aa b63e 2c0b 773e a359 6cbe
000002d0: 5e15 0dbe eacb 513e c163 d93e 958c 4c3e
000002e0: 228c 6ebe c0d2 793e 405d 58be 2634 a4be
000002f0: ee1e 3fbe bb2c bb3d 8999 fc3e b28d 243e
00000300: 0f0b a3be 1821 1ebe e4a5 b63e 8932 babe
00000310: 5b97 22be 5d16 3abe 4735 6a3e 925f 07be
00000320: a9fa a03e 8deb f8bd 7e63 39be a648 b53e
00000330: a957 a7be 7df4 9dbd d741 bb3e 0619 b4bb
00000340: b0e0 113e 7ed9 25be c1f7 9b3c 03ff b53e
00000350: 3346 b9be 989d 973e 71fb f83d 8e67 09be
00000360: 68c3 acbe 5741 e2be 6d93 afbe 3e3b 003e
00000370: 4104 623e 63e9 47be 44cf 943e 756a 3a3e
00000380: 9872 dc3e 0de9 38be bcbc 583e 927a 2b3e
00000390: 9cc3 f23c 215b 2b3e 0a95 71be 1548 3d3d
000003a0: d7be 08bd 2c28 ecbc 7c31 7bbd cb93 733e
000003b0: 5cf1 c43e 9f68 27bd 708f 1cbd a86d c43e
000003c0: e27e 803e e9b5 d03e 4d4d e8bd 1f2c 4dbd
000003d0: eaa7 c23e a0c6 c13d 1a77 68be d93c 9fbe
000003e0: a709 bdbd 0717 73be d27e 373e 44fd d8bd
000003f0: 7e95 eb3e 93fe d4bc e6d3 b1be 3ee1 e6bd

layer1.0.bias f4 [32]
-0.3134781 0.044994764 0.25611725 0.19315536 -0.026029976 0.12915567 0.14126457 -0.12656642
-0.3292976 -0.109268285 0.007211666 -0.14366919 -0.021613287 0.04222432 -0.016867336 -0.214973
0.1709243 -0.029317778 -0.18355379 0.081837654 -0.019707713 -0.012698569 0.390267 0.27332386
-0.19645147 0.08225902 -0.021788586 -0.041758712 -0.18421541 0.07415636 -0.10025857 0.0041806153
00000000: 3480 a0be 6e4c 383d cd21 833e 85ca 453e
00000010: d13c d5bc 6241 043e a9a7 103e a19a 01be
00000020: b299 a8be 0dc8 dfbd d74f ec3b 041e 13be
00000030: 590e b1bc 69f3 2c3d 5e2d 8abc e221 5cbe
00000040: c806 2f3e d62b f0bc 86f5 3bbe 809a a73d
00000050: 1272 a1bc a90d 50bc 14d1 c73e 1bf1 8b3e
00000060: 932a 49be 6b77 a83d fa7d b2bc 2f0b 2bbd
00000070: f7a2 3cbe 4adf 973d 5d54 cdbd 8bfd 883b

layer2.0.weight f4 [64, 32, 3, 3]
0.023936749 0.018830702 -0.05307771 -0.07743173 0.0011187147 -0.050378192 -0.017077982 -0.020390848
0.046416465 0.13809524 0.13773419 0.015600563 -0.027453285 -0.019140566 0.0058210725 0.08822217
-0.09349513 0.028970052 0.16277313 0.029324513 -0.06885591 0.038873013 0.14301665 0.0006285718
-0.062162843 0.048523884 0.10352026 -0.102276534 -0.20613909 -0.0809631 -0.024190808 -0.10532862
-0.17419064 -0.11990625 0.04069988 0.014626594 -0.10939869 -0.13910307 -0.09128657 -0.17021567
-0.15735538 -0.06130234 -0.033277284 -0.13794897 -0.15324265 0.0796365 0.04586361 -0.030398624
0.02291416 0.055501193 0.0880578 -0.048168384 0.041565448 0.16086893 0.16968648 0.06633779
-0.083142005 0.039939437 0.058133867 0.028325628 0.006175338 -0.04794768 -0.04568734 -0.0444668
0.056989945 0.02999747 0.087033525 0.000953278 -0.013052297 0.030221405 0.013478753 -0.042596694
0.028866544 0.0964883 0.061687425 -0.06467466 0.055603154 0.055052154 -0.0046783974 -0.034563173
-0.009758846 0.21361753 -0.06344755 -0.27385187 0.035911523 0.11108572 0.018552948 -0.17563565
0.03085973 0.17205857 0.071383595 0.020132862 -0.027692752 -0.019943675 0.04367744 -0.052674215
-0.09088083 -0.10509645 -0.08910588 -0.05047973 -0.082957596 -0.024790127 -0.050470322 -0.14968836
-0.14581211 0.031122085 -0.13939658 -0.1702572 -0.2117565 -0.1042364 0.1840033 0.018323297
-0.071797 0.11689465 0.113026 0.12597191 -0.0128004365 -0.09404109 -0.10897762 -0.039720945
-0.05701471 -0.088227704 -0.15652238 -0.12553543 -0.0572384 -0.07872339 -0.10119325 -0.039025575
-0.044731822 0.04884904 -0.19962782 -0.3217957 -0.045789775 -0.18473814 -0.2900402 -0.05298193
0.044122804 -0.030277936 0.111473516 -0.22689505 -0.11988084 0.023249548 -0.11286453 -0.25235936
0.18917327 -0.12025506 -0.22587934 0.019647742 0.10872912 -0.0725566 -0.1761308 0.047655668
0.10714779 0.0960022 -0.0014689728 0.007279089 -0.04528305 0.13990526 0.17453298 -0.043196622
0.012393984 0.093315996 0.12620082 0.019684736 0.039257247 -0.052795302 0.12546822 0.061237074
-0.079493836 -0.0059899325 0.082815096 0.085459985 -0.048800547 -0.041914217 -0.028698472 0.04217117
0.029776867 -0.039086446 0.119023785 0.115616485 -0.043199774 0.010669776 0.056098357 0.023378318
-0.14449763 -0.031653523 0.1039247 -0.0084854765 -0.13150422 -0.12457085 0.039686542 0.046714026
0.07407224 -0.059910886 0.02609265 0.15789855 0.06448689 -0.14520913 -0.07872158 -0.04698091
0.12988125 0.0752348 -0.05105322 0.029144062 0.10948661 0.058512192 -0.05086641 0.054101612
0.043963443 -0.009584694 0.0040360936 0.11184557 0.030923067 -0.042221703 -0.0015779686 0.059416868
0.24980026 -0.011918759 -0.28077868 0.08891072 0.05118416 -0.07020554 -0.16256109 -0.0952678
0.052471623 -0.049899172 -0.03746885 0.007134227 -0.0745127 -0.04105068 0.026337884 0.05119825
-0.013192218 0.02143484 -0.12525852 -0.167768 -0.03414366 -0.044210803 -0.18945825 -0.04579049
-0.033738934 0.011944354 0.0202635 -0.043506965 -0.018146921 0.012944525 -0.035352867 -0.01867916
-0.020205671 0.019348064 -0.049885802 -0.08540473 -0.046295363 -0.039350823 0.05538352 0.04544467
00000000: 0017 c43c d842 9a3c 0368 59bd 8794 9ebd
00000010: d6a1 923a 5d59 4ebd 20e7 8bbc b50a a7bc
00000020: 311f 3e3d d768 0d3e 310a 0d3e 8199 7f3c
00000030: b6e5 e0bc adcc 9cbc b2be be3b d3ad b43d
00000040: 607a bfbd 9a52 ed3c 00ae 263e f639 f03c
00000050: 5404 8dbd 4f39 1f3d f572 123e bdc6 243a
00000060: 779e 7ebd fbc0 463d 6e02 d43d 5c76 d1bd
00000070: 2016 53be fbcf a5bd cd2b c6bc 88b6 d7bd
00000080: 085f 32be 6891 f5bd ebb4 263d 62a4 6f3c
00000090: 6c0c e0bd 0971 0ebe 74f4 babd 044d 2ebe
000000a0: c521 21be 2a18 7bbd c34d 08bd 7f42 0dbe
000000b0: a4eb 1cbe 7618 a33d 7bdb 3b3d 8906 f9bc
000000c0: 7ab6 bb3c 3855 633d a657 b43d 364c 45bd
000000d0: 8840 2a3d d3ba 243e 4bc2 2d3e 1bdc 873d
000000e0: 5b46 aabd 8997 233d c71d 6e3d 260b e83c
000000f0: 7d5a ca3b c964 44bd a622 3bbd d222 36bd
00000100: 4a6e 693d 41bd f53c a23e b23d 67e5 793a
00000110: 4dd9 55bc e192 f73c fdd5 5c3c df79 2ebd
00000120: 8879 ec3c a89b c53d f4ab 7c3d 2674 84bd
00000130: 22c0 633d 5e7e 613d 3e4d 99bb 1d92 0dbd
00000140: 91e3 1fbc 8ebe 5a3e caf0 81bd 5036 8cbe
00000150: f617 133d e980 e33d 5afc 973c d5d9 33be
00000160: 8bcd fc3c 1f30 303e 9031 923d aced a43c
00000170: e9db e2bc eb60 a3bc 1ee7 323d ebc0 57bd
00000180: bb1f babd cf3c d7bd 257d b6bd d5c3 4ebd
00000190: ace5 a9bd aa14 cbbc f8b9 4ebd e847 19be
000001a0: c54f 15be bef3 fe3c fabd 0ebe e757 2ebe
000001b0: b2d6 58be e579 d5bd 5c6b 3c3e bd1a 963c
000001c0: 4e0a 93bd 7666 ef3d 2d7a e73d c8fe 003e
000001d0: ecb8 51bc 9d98 c0bd a92f dfbd 6eb2 22bd
000001e0: 4288 69bd bab0 b4bd 6747 20be 5c8c 00be
000001f0: d072 6abd bb39 a1bd 683e cfbd 48d9 1fbd
00000200: b738 37bd ee15 483d 3c6b 4cbe 68c2 a4be
00000210: 0f8e 3bbd ff2b 3dbe 2680 94be 9503 59bd
00000220: 1dba 343d 6f09 f8bc 3a4c e43d 2d57 68be
00000230: 1684 f5bd d675 be3c 8525 e7bd 3f35 81be
00000240: a3b6 413e 4948 f6bd ea4c 67be 4df4 a03c
00000250: 5fad de3d 8e98 94bd a25b 34be 9732 433d
00000260: 4d70 db3d cd9c c43d 8c8a c0ba 6d85 ee3b
00000270: b87a 39bd 5343 0f3e c6b8 323e f1ee 30bd
00000280: 2310 4b3c 751c bf3d ca3a 013e e241 a13c
00000290: 35cc 203d e33f 58bd be7a 003e bad3 7a3d
000002a0: aacd a2bd 3247 c4bb f69a a93d a505 af3d
000002b0: 15e3 47bd 3eae 2bbd 0f19 ebbc adbb 2c3d
000002c0: 9eee f33c 1c19 20bd bec2 f33d 56c8 ec3d
000002d0: 3ff2 30bd 49d0 2e3c 64c7 653d e383 bf3c
000002e0: 30f7 13be 20a7 01bd 79d6 d43d ab06 0bbc
000002f0: 0ba9 06be 001f ffbd 5b8e 223d 3557 3f3d
00000300: 30b3 973d 1e65 75bd 41c0 d53c 28b0 213e
00000310: b411 843d b4b1 14be c838 a1bd 0e6f 40bd
00000320: 97ff 043e b414 9a3d 2e1d 51bd 87bf ee3c
00000330: 843a e03d 7baa 6f3d 4c59 50bd a799 5d3d
00000340: 0313 343d 1f09 1dbc 3541 843b 4a0f e53d
00000350: 5f52 fd3c aaf0 2cbd d7d3 ceba 1a5f 733d
00000360: a4cb 7f3e e646 43bc 39c2 8fbe d316 b63d
00000370: 7ba6 513d ecc7 8fbd 6a76 26be c41b c3bd
00000380: 7cec 563d 1363 4cbd f078 19bd 3cc6 e93b
00000390: 1d9a 98bd c224 28bd 8cc2 d73c 42b5 513d
000003a0: 2c24 58bc 1e98 af3c c543 00be 60cb 2bbe
000003b0: 39da 0bbd 6316 35bd 5801 42be cf8e 3bbd
000003c0: d631 0abd 40b2 433c a4ff a53c 5c34 32bd
000003d0: daa8 94bc 4615 543c 2bce 10bd 0a05 99bc
000003e0: 5d86 a5bc d57f 9e3c 0e55 4cbd ade8 aebd
000003f0: 35a0 3dbd 542e 21bd d4d9 623d 3124 3a3d

layer2.0.bias f4 [64]
-0.072360285 0.010068282 -0.05732951 -0.044460703 -0.06425919 -0.033188723 -0.014369577 0.0580094
-0.009922229 -0.0039192126 0.009240505 -0.0018095918 0.018300496 0.020982537 -0.014865417 0.06343712
-0.03017484 -0.012685096 0.009455987 -0.0396835 0.009476288 0.0679901 -0.058376618 -0.07483854
0.02824896 0.04968019 0.013584494 -0.010571402 -0.01714543 -0.02661143 0.0070449635 0.0010776102
-0.0106738 0.050484985 0.01412336 -0.035220116 -0.045312725 0.013217869 0.049893647 -0.03527806
0.05120679 0.007882525 0.047356416 0.06543656 0.03441952 0.036273193 -0.04588212 -0.07043534
-0.03262138 -0.104384035 -0.0061367447 0.025548361 -0.04977781 -0.03113913 -0.040276274 -0.019002048
-0.048277978 0.0048737233 0.051418763 -0.059840024 0.023880797 0.013550193 -0.009753999 -0.02773439
00000000: a131 94bd 6ff5 243c 59d2 6abd 6d1c 36bd
00000010: 529a 83bd e6f0 07bd 606e 6bbc 449b 6d3d
00000020: d890 22bc bd6c 80bb 7d65 173c d32f edba
00000030: ecea 953c 92e3 ab3c 148e 73bc 52eb 813d
00000040: 3a31 f7bc 26d5 4fbc 49ed 1a3c 2a8b 22bd
00000050: 6f42 1b3c 653e 8b3d 521c 6fbd f344 99bd
00000060: 5d6a e73c 747d 4b3d 7f91 5e3c ac33 2dbc
00000070: 9374 8cbc 3700 dabc 70d9 e63b 993e 8d3a
00000080: 29e1 2ebc 58c9 4e3d aa65 673c f842 10bd
00000090: d699 39bd c38f 583c 485d 4c3d ba7f 10bd
000000a0: 36be 513d b525 013c cdf8 413d 9a03 863d
000000b0: 7cfb 0c3d 3393 143d e4ee 3bbd 6740 90bd
000000c0: ff9d 05bd 4cc7 d5bd bf16 c9bb cc4a d13c
000000d0: d1e3 4bbd 7d17 ffbc bcf8 24bd 2faa 9bbc
000000e0: 21bf 45bd c1b3 9f3b 7b9c 523d d01a 75bd
000000f0: a9a1 c33c a101 5e3c 3dcf 1fbc 3b33 e3bc

fc.weight f4 [10, 3136]
0.011367639 -0.012748907 -0.04726999 -0.0059038983 0.01867899 0.006206716 0.011668679 -0.0054820282
-0.09918765 -0.041356545 0.017526958 0.017636828 0.0034161636 0.08029029 -0.03284755 -0.12851569
-0.11500986 0.012200077 0.06605061 0.00687238 0.018780556 0.009063634 -0.010667788 0.007593437
0.013453834 0.030677062 0.032839388 0.004963172 0.061052132 0.046962645 -0.027770706 -0.006008014
-0.1109934 -0.07814839 -0.04136259 0.038921002 0.054612312 0.00066762086 0.03794298 -0.09053138
-0.19900553 -0.15472962 0.009818121 0.028540773 0.010215658 -0.08862077 -0.29188305 -0.17986783
-0.045800835 0.0066107945 -0.015690183 -0.029096091 0.0014774305 0.022979343 0.02262478 -0.005510384
-0.0032181696 -0.002134044 0.030207094 -0.008299853 -0.040809102 -0.008611354 0.026240727 0.073349364
0.087214634 0.013366684 -0.03486778 -0.013454256 0.0492749 0.046795793 0.063654505 0.069176294
0.04090728 0.0046716155 0.03393684 0.053206977 0.03486171 0.09382105 0.05025679 0.03909049
0.040542804 -0.014893946 -0.0064298557 -0.00688215 0.04220265 0.090343446 0.045184094 -0.0770275
-0.01991634 -0.032067638 0.0051715113 -0.008328447 0.007199564 -0.041065447 -0.10749497 -0.115978256
-0.12892166 -0.06609841 -0.013834724 0.0142745 0.019116469 -0.04537842 -0.059304606 -0.024700234
0.02326803 0.02999421 0.026757026 -0.0056305737 -0.0141245965 -0.024064299 0.0131379645 0.018385626
0.0048944606 0.07751612 -0.006935813 -0.02905593 -0.033534124 0.009098791 -0.002465715 0.016542053
-0.01355846 -0.006721608 -0.07851051 -0.02240083 -0.012068623 -0.07984804 -0.03384955 -0.092075974
-0.06325084 0.0011008322 0.017282255 0.032180876 -0.095292315 -0.061588686 -0.06118531 -0.06773343
-0.035519447 0.014841122 0.044879075 -0.05016776 -0.03712385 -0.08414431 -0.03446685 0.0024662393
0.078925334 0.04761957 0.019157283 0.01137552 0.0064998427 -0.03512947 0.056658838 0.002476471
0.014655663 -0.016611366 -0.014169853 0.04052977 -0.0017579494 0.0048042634 0.009329285 0.01417102
-0.01706691 0.029558357 0.043659337 -0.026489325 0.015791833 -0.03388455 0.02770269 0.039113816
0.06314894 0.017522173 0.036019232 -0.05533875 0.0030856985 0.056840077 0.0516216 0.060636878
0.012803785 -0.0059048575 0.012237817 -0.04408688 0.0503151 0.052974503 0.08315221 0.029484684
0.06965997 0.10202077 -0.086845055 -0.09465526 -0.067892455 -0.0012328319 0.032998677 0.0666107
0.121979855 -0.15835406 -0.16355272 -0.03267657 -0.013877339 0.001198215 -0.010560239 -0.02769644
-0.023449488 0.012878575 -0.00020347547 0.006892178 0.011630789 -0.024829036 -0.04365063 -0.030755108
-0.017086757 -0.030134758 -0.02280665 -0.070826456 -0.050755557 -0.0223593 -0.042358603 -0.09266621
-0.03924359 -0.016395649 -0.14560775 -0.13927694 -0.050904557 -0.058693856 -0.11641065 -0.09486307
-0.01678029 -0.047301896 -0.021866543 -0.03177476 0.015756503 0.016183514 -0.01795645 0.011590522
0.011821673 0.03579878 0.03198583 0.062538624 -0.015986102 -0.0043826485 -0.0063648038 0.030849872
0.0051159803 0.010328203 0.017730676 -0.011842977 0.020065155 0.008084913 -0.009988667 0.0070787612
-0.025637452 -0.029806694 0.0004899665 -0.0052429456 -0.005671521 -0.035477616 -0.058250293 -0.03228886
00000000: 553f 3a3c cbe0 50bc 2d9e 41bd 7d75 c1bb
00000010: ae04 993c b561 cb3b fd2d 3f3c 96a2 b3bb
00000020: e522 cbbd 7b65 29bd b294 8f3c 1c7b 903c
00000030: b7e1 5f3b 3c6f a43d 278b 06bd 9e99 03be
00000040: 4a8a ebbd d5e2 473c 8b45 873d b431 e13b
00000050: aed9 993c a37f 143c f2c7 2ebc 5ed2 f83b
00000060: 786d 5c3c 764e fb3c 9882 063d 1ba2 a23b
00000070: cd11 7a3d e75b 403d 647f e3bc e0de c4bb
00000080: 8250 e3bd 430c a0bd d26b 29bd a16b 1f3d
00000090: 29b1 5f3d 4703 2f3a 196a 1b3d 8468 b9bd
000000a0: 1bc8 4bbe 7171 1ebe 2fdc 203c 57ce e93c
000000b0: 935f 273c ce7e b5bd b271 95be 462f 38be
000000c0: a899 3bbd 5d9f d83b b388 80bc ed5a eebc
000000d0: 57a6 c13a 2d3f bc3c 9a57 b93c 7490 b4bb
000000e0: ede7 52bb 51db 0bbb de74 f73c 1bfc 07bc
000000f0: 7227 27bd a316 0dbc cbf6 d63c 3138 963d
00000100: 969d b23d f0ff 5a3c 84d1 0ebd 3d6f 5cbc
00000110: 7ad4 493d f2ac 3f3d 4b5d 823d 4dac 8d3d
00000120: 648e 273d 5a14 993b 5b01 0b3d 8fef 593d
00000130: 27cb 0e3d 4025 c03d 10da 4d3d 5a1d 203d
00000140: 3610 263d bd05 74bc 8ab1 d2bb a983 e1bb
00000150: b0dc 2c3d fc05 b93d f512 393d 98c0 9dbd
00000160: 9827 a3bc 5b59 03bd c875 a93b 0a74 08bc
00000170: 52ea eb3b 3e34 28bd 5326 dcbd 0286 edbd
00000180: 0a04 04be 9a5e 87bd 0aab 62bc 98df 693c
00000190: 249a 9c3c b9de 39bd 63e9 72bd 2558 cabc
000001a0: 989c be3c 6bb6 f53c 8d31 db3c ad80 b8bb
000001b0: da6a 67bc 7e22 c5bc 9e40 573c 749d 963c
000001c0: b661 a03b c6c0 9e3d d145 e3bb b406 eebc
000001d0: 145b 09bd 1813 153c d597 21bb 3383 873c
000001e0: 4e24 5ebc ef40 dcbb 1eca a0bd f281 b7bc
000001f0: 79bb 45bc 5f87 a3bd d3a5 0abd 5492 bcbd
00000200: a889 81bd cd49 903a 8493 8d3c 18d0 033d
00000210: 9e28 c3bd 6b44 7cbd 739d 7abd d3b7 8abd
00000220: d77c 11bd 2d28 733c 1fd3 373d b67c 4dbd
00000230: 2e0f 18bd da53 acbd 1d2d 0dbd a1a0 213b
00000240: 9ba3 a13d bd0c 433d bcef 9c3c 6460 3a3c
00000250: a2fc d43b ebe3 0fbd 1913 683d 4a4c 223b
00000260: 4e1e 703c 8f14 88bc ac28 68bc 8b02 263d
00000270: fe6a e6ba 156d 9d3b dbd9 183c 912d 683c
00000280: e8cf 8bbc 5e24 f23c 22d4 323d 2400 d9bc
00000290: e05d 813c 87ca 0abd c0f0 e23c cf35 203d
000002a0: 3b54 813d a98a 8f3c e788 133d e3aa 62bd
000002b0: 6e39 4a3b 24d1 683d 2c71 533d 605e 783d
000002c0: f7c6 513c 897d c1bb 2081 483c 7294 34bd
000002d0: 3517 4e3d cbfb 583d b54b aa3d dd89 f13c
000002e0: e3a9 8e3d 44f0 d03d d2db b1bd 9eda c1bd
000002f0: 330b 8bbd f996 a1ba 9f29 073d 316b 883d
00000300: 93d0 f93d 9127 22be 5d7a 27be ded7 05bd
00000310: c75d 63bc 6c0d 9d3a da04 2dbc a5e3 e2bc
00000320: 2419 c0bc a900 533c 085c 55b9 c8d7 e13b
00000330: 118f 3e3c 4366 cbbc 01cb 32bd 23f2 fbbc
00000340: 87f9 8bbc 2bdd f6bc 03d5 babc 760d 91bd
00000350: 0fe5 4fbd da2a b7bc 3780 2dbd c8c7 bdbd
00000360: e3bd 20bd 2b50 86bc 331a 15be 9d9e 0ebe
00000370: 4c81 50bd f868 70bd b568 eebd 9247 c2bd
00000380: d276 89bc a2bf 41bd 7721 b3bc 4026 02bd
00000390: c813 813c 4a93 843c 6819 93bc 2ce6 3d3c
000003a0: b1af 413c bea1 123d 9303 033d 4014 803d
000003b0: 49f5 82bc 529c 8fbb d88f d0bb dfb8 fc3c
000003c0: f4a3 a73b a037 293c ec3f 913c 0c09 42bc
000003d0: ae5f a43c 9576 043c 82a7 23bc f4f4 e73b
000003e0: a205 d2bc 2b2d f4bc 1871 003a 04cd abbb
000003f0: 2bd8 b9bb fa50 11bd dc97 6ebd 5341 04bd

fc.bias f4 [10]
0.0054401616 0.054984365 0.009397021 -0.007232008 -0.016933313 0.0073233107 0.0075970297 -0.0025823645
0.012388071 -0.014643882
00000000: 6243 b23b 4937 613d f6f5 193c 7bfa ecbb
00000010: bbb7 8abc 62f8 ef3b 81f0 f83b e33c 29bb
00000020: 56f7 4a3c e5ec 6fbc
