models/mnist_v1.pth (torch, 409511 bytes, 4 tensors)

0.weight f4 [128, 784]
000000 b5 5f d5 3c 87 dc 11 3d 27 e8 be bb c3 48 0f 3c
       0.026046613 0.035610702 -0.0058260146 0.008745375
000010 59 91 e4 bc 5b b5 bd bc 55 6b c8 bc fd 73 02 3d
       -0.027901338 -0.023157766 -0.024465242 0.031848896
000020 13 31 c3 bc ef 81 16 3c b7 8d f5 3c ee 6c f6 bc
       -0.023827111 0.009186252 0.029974801 -0.030081239
000030 ce 81 ec bc 07 dc a3 bc 8d 7e 1c bc 5f dc 85 3c
       -0.02887049 -0.020002378 -0.009551656 0.016340433
000040 75 ee a7 3c 57 99 01 3d c9 f3 17 bc ad fb ad 3c
       0.020499447 0.031640377 -0.0092744315 0.021238172
000050 67 c7 8b 3c de 05 bd bc 57 3d 04 3d a7 10 9a 3c
       0.017062856 -0.023074087 0.03228506 0.018806769
000060 f2 fa c1 ba 17 24 cd bc ad 5d c8 3b 1c 2a ff bc
       -0.0014799519 -0.025041623 0.0061146826 -0.031148009
000070 5f 51 e0 bb 13 ab f0 3c a3 90 07 bc 9c 95 fb bc
       -0.0068456377 0.02937845 -0.00827423 -0.030710988
000080 fd 7a 0c 3d 31 bf 48 bc 77 91 49 bc b1 9b e3 3c
       0.03429698 -0.012252615 -0.012302748 0.0277842
000090 20 32 bc 3c 4c 98 0a bc bf 71 e2 3c 79 a0 fb 3c
       0.02297312 -0.008459162 0.027642129 0.030716168
0000a0 91 70 0f 3d 87 6f d9 bc 8c f5 59 3b d6 5b 0b 3d
       0.03501946 -0.026542438 0.003325793 0.03402313
0000b0 bd 47 a7 3b 8b a0 83 bc f0 69 6b bc 3f ae 5e bc
       0.0051049874 -0.016067764 -0.014368519 -0.013591348
0000c0 33 d0 f0 3c d8 01 31 3b ea e7 95 bc b0 60 a5 bc
       0.029396152 0.0027009156 -0.018299062 -0.020187706
0000d0 59 2b 07 bd 51 f1 83 bc e0 81 b7 bc f7 a3 0d bc
       -0.033000324 -0.01610628 -0.022400796 -0.008645049
0000e0 53 11 e3 3c 17 c3 3c 3c f0 f9 78 bb 7b 21 8a bc
       0.027718222 0.011521122 -0.0037990771 -0.016861668
0000f0 d7 45 03 3d 45 45 a3 3c 8e 71 e0 ba c1 fe 8e 3c
       0.032049026 0.019930491 -0.0017123686 0.01745546
000100 84 f2 9a bc 14 b2 0e 3d 81 eb 9a ba b7 ce 79 bc
       -0.018914469 0.034837797 -0.0011819453 -0.015247039
000110 e1 82 6e bc b0 1c f2 3c 8a 08 96 3b 0b 9f 22 bc
       -0.014557571 0.029554695 0.0045786547 -0.009925614
000120 23 7f 07 3d e5 06 39 bc c4 a7 ec bc 51 e9 0e bd
       0.03308023 -0.011293148 -0.02888859 -0.034890477
000130 c5 78 9b bc 26 ad 9c bb 86 60 39 3b 16 24 48 b9
       -0.018978486 -0.004781383 0.0028286292 -0.0001908693
000140 49 1d 93 bc c7 2a 45 bc a2 c8 c7 b9 f5 0c bd ba
       -0.0179583 -0.012034125 -0.0003810572 -0.0014423417
000150 17 14 f2 bb 85 1d d7 3b 2d 23 e1 3c 9d 08 e8 bc
       -0.007387649 0.0065647983 0.027482593 -0.02832442
000160 9e fe bf bc 63 6e 3e bc 31 17 29 bc 7c 10 7d bc
       -0.02343684 -0.011622998 -0.010320471 -0.015445825
000170 8c 0d 8c bb df ad 59 3c 00 5b 78 bb ea 8e 9d 3c
       -0.004274076 0.013286083 -0.0037896037 0.019233186
000180 18 06 4d 3c 30 e0 c4 3c 60 9d 1c 3c 1b 38 19 bc
       0.01251366 0.024032682 0.0095590055 -0.0093517555
000190 91 6b 65 bc 9e d6 99 ba 40 dd 8b 3c ca 8e 73 3c
       -0.014002697 -0.0011736935 0.017073274 0.0148655865
0001a0 2a 73 da 3b 7b b7 0a 3b 35 a2 0a bd 5c 75 81 bc
       0.0066665607 0.0021166492 -0.0338461 -0.015803032
0001b0 fc d9 11 3c 9a b5 1c 3c 2b 5b da 3c 88 9f 8d bb
       0.008902069 0.009564782 0.0266548 -0.004321996
0001c0 31 e7 86 3c ca 66 87 bb 4f 95 f2 3b eb c6 96 bc
       0.016467663 -0.0041321265 0.007403053 -0.018405398
0001d0 b5 d5 01 bd eb f7 fe 3b ad b1 6f 3b e6 e2 94 3c
       -0.031697948 0.007781019 0.003657441 0.0181746
0001e0 bb 85 23 3b 7a a6 49 bc ba 62 8f ba d2 9a ad 3b
       0.0024951536 -0.0123077575 -0.0010939457 0.005297997
0001f0 72 3d 46 bb af 84 17 bc 5b a5 7c bc 63 6d c6 ba
       -0.0030249027 -0.009247943 -0.015420283 -0.0015138801
000200 27 fd 6c bb 21 5d a0 3c 55 e4 b5 3c 65 6c 06 3d
       -0.0036161633 0.019575657 0.022203604 0.032818217
000210 ca 2f 3e bc c4 2f 08 3c 4a 4a e2 3a bd 66 75 3b
       -0.0116080735 0.008312169 0.0017264572 0.003744527
000220 40 c0 d4 3c 8f 88 0f bd e5 3a 8b 3c 13 a9 dc 3c
       0.025970578 -0.03504234 0.016995857 0.02693609
000230 13 3b c7 bc 77 d4 a3 3c 8f 79 f1 3c 8e 34 88 3a
       -0.024320161 0.019998772 0.029476909 0.0010391639
000240 f5 d6 97 3c 5f 1c ce bb 77 ce 01 bd bd 21 b6 3a
       0.018535117 -0.006290003 -0.03169104 0.0013895553
000250 00 6a 1a 3c 51 70 4e bc 05 14 47 bb 4d 1c dd bc
       0.009424686 -0.0126000205 -0.0030376923 -0.026991034
000260 59 13 4c 3c 56 c3 5e bb 0f 9e 38 bc be 04 95 bc
       0.012455785 -0.003399094 -0.011268153 -0.018190738
000270 bd f9 1d 3c 4d a5 88 3c 3f 3f 0d 3c 09 b8 06 bd
       0.009642062 0.016680384 0.008621036 -0.032890353
000280 aa 7e 78 3c 35 b4 1b bb 77 6a 2f 3b 78 73 d8 3a
       0.015166918 -0.0023758535 0.002676634 0.0016513905
000290 9f aa f2 bb 10 d5 03 3d 25 17 52 bc cd b3 41 bc
       -0.0074055935 0.032185614 -0.012822901 -0.011822653
0002a0 37 3b 09 3c 33 dd 72 bc 5a 55 9e bc 66 46 87 bc
       0.008375934 -0.014823246 -0.019327808 -0.01651306
0002b0 5f c1 48 3c af 82 91 bc 1e 27 37 3c ec 9f b2 3b
       0.0122531345 -0.01776251 0.01117876 0.005451193
0002c0 28 c8 cd 3c a3 b0 93 3c 6b 66 ae bc af e9 04 bd
       0.025119856 0.018028563 -0.021289071 -0.03244942
0002d0 ce 06 ac 3c af 0c cc 3c 07 d0 8d 3c f1 45 52 bc
       0.020999338 0.024908392 0.01731111 -0.012834058
0002e0 9b cd 1d 3c 5c 0b ad bc c5 a2 13 bc cb 2c ce 3c
       0.00963154 -0.02112358 -0.009010975 0.025167843
0002f0 f5 4b 35 3c 3c 26 54 3c c6 7b e1 bc 71 20 80 3c
       0.011065473 0.012948569 -0.02752484 0.01564047
000300 45 d8 71 3b b6 f1 f6 bb b0 e1 dd 3c 1e 6b a9 3c
       0.0036902588 -0.0075361384 0.027085155 0.02068096
000310 55 f2 04 bc 2d 9f 41 bc 86 32 e3 3c b3 ea 33 3c
       -0.008114417 -0.011817736 0.027734052 0.01098125
000320 0c 10 77 3c 99 c6 06 bd d0 3a 0e bd 02 75 bb bc
       0.0150795095 -0.03290424 -0.034724057 -0.022882942
000330 4d 4c 90 bc 0f d4 4d bc 69 95 52 bc 85 d9 c8 bc
       -0.017614508 -0.012562766 -0.012853005 -0.024517784
000340 ed 30 e1 bc cf 4f 10 3d 54 83 09 bd 9a 0d 66 bc
       -0.02748915 0.03523236 -0.03357251 -0.014041329
000350 5e c5 b0 3c df 5e 09 3d c1 d3 4f 3a 39 49 05 bd
       0.021578487 0.03353774 0.0007927977 -0.032540534
000360 84 86 91 3c 06 5f b0 bc 06 86 00 3c dc 09 c3 3c
       0.017764337 -0.021529686 0.007844454 0.023808412
000370 51 1d 92 bb 4a d0 e7 3c 00 fa ed 3c 2a ef f8 3c
       -0.004459061 0.028297562 0.029049873 0.03038748
000380 90 10 4e bc 57 dc 21 bc c0 10 a1 3c 9f fc f4 3c
       -0.012577191 -0.009879193 0.019661307 0.029905615
000390 4c 9d 4e 3c 9d 7e 12 3d e9 ae 77 bc 76 70 41 bc
       0.012610745 0.03576528 -0.015117385 -0.011806598
0003a0 84 c2 fc bc 15 60 94 3c 6f 0e d0 bb 53 03 87 bc
       -0.030854471 0.018112222 -0.006349377 -0.016481077
0003b0 f4 4e 59 bc d1 ea c7 bb 59 56 dd 3a 06 76 c4 3b
       -0.013263453 -0.0061009903 0.0016886696 0.005995515
0003c0 f3 fd dd 3b 34 9b d7 3c 4a bc ae bc c1 83 19 3c
       0.006774658 0.026319124 -0.021330018 0.0093697915
0003d0 9a d8 0e 3c 39 55 01 bc 7e 14 32 bc e4 d4 fd bc
       0.008718634 -0.007893854 -0.0108691435 -0.030985303
0003e0 21 6c 7d bc 36 44 da 3c 50 ff 0b bd 40 14 9a ba
       -0.0154676745 0.026643854 -0.03417903 -0.0011755303
0003f0 39 ad f8 bc 99 0e b0 3c ef 69 93 3c e3 af 09 bd
       -0.030356036 0.021491336 0.017994849 -0.033615004

0.bias f4 [128]
000000 1b 48 36 bb ff 8b d3 bc 34 07 fd 3c c9 60 b4 3a
       -0.0027813974 -0.025823591 0.030887224 0.0013761754
000010 d8 c6 10 bc e8 c9 8b 3c 20 53 05 bd a9 df bd bc
       -0.008836471 0.01706405 -0.032549977 -0.023177939
000020 cd 3a 26 3c fb fe 85 bc 0f 5c a2 bc b9 0c b2 bc
       0.010145855 -0.016356936 -0.019819288 -0.021734582
000030 b8 a4 06 bd 29 1d a8 3c 33 a4 08 bc af 55 db 3b
       -0.03287193 0.020521717 -0.008339929 0.006693564
000040 da e1 fe 3c d6 f7 db bb 89 ad 45 bc 33 e1 14 3c
       0.031113554 -0.006712894 -0.0120653 0.009086895
000050 09 ef 15 3d f5 22 2a bc 76 60 af 3c d7 19 d3 bc
       0.036604915 -0.010384311 0.0214083 -0.025769157
000060 96 be fb 3c 83 08 a5 3b 90 46 f2 ba 2d 07 9e bc
       0.030730527 0.005036415 -0.0018484164 -0.019290531
000070 cd 9b 24 b8 83 ec f8 3c 64 fc 57 bb 87 f8 d1 3b
       -3.9245748e-05 0.030386215 -0.0032956833 0.0064078006
000080 41 77 81 bc 4d e5 8d bb 41 1d 04 bc f8 93 ad bc
       -0.015803935 -0.0043303133 -0.008063615 -0.021188721
000090 c5 7b 03 3d 8d 44 02 bd 64 b2 5e 3b 2f b9 00 3d
       0.032100458 -0.031803656 0.003398084 0.031426605
0000a0 d0 cd be 3c 5c 91 0a bd 01 b5 50 3a db 6e 55 bc
       0.023291498 -0.03383003 0.0007961542 -0.013026918
0000b0 da be 4d bc 2e 04 62 3a a2 cc e8 3c e2 58 06 bd
       -0.01255771 0.00086218386 0.028417889 -0.03279961
0000c0 2e 11 ca 3b 5c cd 82 bc 01 ad 91 3c 7a b9 5d bc
       0.0061665988 -0.015967064 0.01778269 -0.013532991
0000d0 c1 4b 90 3b 6b c8 26 bc 10 69 7f 3c a4 b5 9a bb
       0.004403562 -0.010179619 0.015589014 -0.0047213603
0000e0 73 01 d2 3b 82 2c 8c 3c fa 36 dc 3c 80 61 b7 3b
       0.006408864 0.017111067 0.026881684 0.0055963397
0000f0 c7 69 fd bc ef c3 15 39 1b af d9 3c 6f 40 cf 3c
       -0.030934228 0.00014282738 0.026572755 0.025299279
000100 32 2a 15 3d bf c0 5d 3c 18 f1 b2 3c c2 bd a5 bc
       0.036417194 0.013534724 0.021843478 -0.020232085
000110 8b 77 aa bc e7 24 31 3c c3 21 b8 bc 2b ba 08 bd
       -0.020808956 0.010812021 -0.022477036 -0.03338067
000120 83 b5 b2 3c 1e 9d 8c 3c bd ee fc bb 7f 0e 5c bc
       0.021815067 0.017164763 -0.0077188895 -0.0134311905
000130 2a 41 f4 3c 22 87 01 bc 4b 85 e9 bc 0c c0 e0 bb
       0.029816229 -0.007905753 -0.028505942 -0.0068588313
000140 0d 36 b4 3c f4 ff 80 3b a9 b5 19 3d 62 aa a7 3b
       0.02199843 0.003936762 0.03752676 0.0051167468
000150 24 94 76 bc e0 2e ee bc 1d af f3 bc 33 1f 03 bc
       -0.015049968 -0.029075086 -0.029746586 -0.008003044
000160 0c dc c1 3c bd 76 cc bc 16 b9 83 3c 12 54 9a 3c
       0.023664497 -0.024958963 0.016079467 0.018838916
000170 ff 5a b4 3c 9f 05 54 bc c8 c4 03 bd 36 b2 f9 3c
       0.022016047 -0.012940793 -0.032170087 0.030480485
000180 0f af 13 3d 28 7f d8 3b 5a 8f 81 bc fa 17 cb bc
       0.03605562 0.006606955 -0.015815426 -0.024791706
000190 c0 93 09 3d f6 32 fd bc 67 7b 83 3c de 7a 39 3b
       0.03358817 -0.03090809 0.016050054 0.0028301994
0001a0 8f 90 1b 3d 55 4c a4 3c 3b 45 c8 3c 11 fa b2 bb
       0.03797966 0.02005593 0.024447074 -0.005461939
0001b0 c6 46 ff 3c 56 b8 b9 bc 13 a6 f8 3c 0e ad 0a 3d
       0.031161677 -0.022670906 0.030352628 0.033856444
0001c0 a9 9e 9c 3c 32 05 08 bd c6 4a 08 bd e2 6a 9d bc
       0.019118624 -0.03320808 -0.033274435 -0.019216005
0001d0 40 25 d9 bc b4 57 fd bc d5 71 72 bc f2 88 07 3d
       -0.02650702 -0.03092561 -0.0147976475 0.033089586
0001e0 11 94 bd 3c 7d 35 8f 3b ea 9e 08 3c e0 28 5d 3c
       0.023141893 0.00437039 0.008338669 0.013498515
0001f0 b4 1a 87 bc 7b 9e b9 bc cf d7 b3 3c d3 42 0f 3d
       -0.016492225 -0.022658577 0.021953491 0.034975838

2.weight f4 [10, 128]
000000 19 bc 08 bd 4a 3c 41 bd 0b 6c 18 3e 24 4e 49 3e
       -0.03338251 -0.047176637 0.14884965 0.19658715
000010 ba 0e c5 bd c3 d3 0d 3e 05 06 ed 3d b7 72 50 3e
       -0.096219495 0.13850312 0.11573414 0.2035626
000020 22 bb 43 3e ff 57 1c be ca 30 9d bc 48 8c 9b 3d
       0.19114354 -0.15267943 -0.019188304 0.07595116
000030 cc 02 d0 bc 06 29 b2 3d f0 be cf 3d 4c 84 44 be
       -0.025391959 0.08699231 0.1014384 -0.19191092
000040 60 e6 38 3d 43 ca 0e bd f9 0c 81 3e e5 d7 86 3e
       0.045141578 -0.03486086 0.2520521 0.2633659
000050 ff b8 81 3e 17 91 32 bd 0d cc 4f bd 9e 19 b6 bd
       0.25336453 -0.0435954 -0.050731707 -0.08891605
000060 87 b7 72 3d df ba d8 bd f2 47 38 bd b4 ab 05 be
       0.059257057 -0.10582518 -0.044990487 -0.13053781
000070 6e ff 8c 3c 66 e2 df bb 6c 7b 5e 3d f9 4c 89 3d
       0.017211642 -0.0068324087 0.054316923 0.067041345
000080 f9 99 86 3e c8 b9 12 3d a4 df 24 bd b6 10 8c bd
       0.26289347 0.035821706 -0.040252343 -0.06839125
000090 7b 71 28 3d 46 85 0c be ea 1b b4 3d 75 26 7c bc
       0.04112385 -0.13722715 0.08794387 -0.015390028
0000a0 72 89 7d 3d 93 db ad 3c 55 58 8a bc 8f db ff 3c
       0.061898656 0.021222865 -0.016887823 0.031232623
0000b0 82 98 81 3d 4a 16 b2 3d 07 cb 4e be f6 c6 92 3d
       0.06327917 0.086956576 -0.20194636 0.07166855
0000c0 ab 5d aa 3d 2d 7c 24 b9 51 b2 67 be ae e9 4b be
       0.08318647 -0.00015686518 -0.22626616 -0.1991336
0000d0 76 91 78 3d c9 0d 5f bd a2 26 58 3d aa 84 d0 bd
       0.060685597 -0.054456506 0.052771218 -0.10181554
0000e0 c6 8f f5 bc 64 1d a6 bd 16 e0 ff 3c 83 27 7a 3c
       -0.029975783 -0.081110746 0.031234782 0.015268209
0000f0 c8 75 4e bd 75 45 89 bd f0 f7 d3 bd 08 01 c2 3d
       -0.050405294 -0.06702701 -0.10350025 0.09472853
000100 96 f6 b7 3d 37 e2 73 3e 10 c0 16 bd 9d ed 87 bd
       0.089825794 0.23816763 -0.03680426 -0.06637118
000110 af 42 d9 3c 92 2f 4c 3d 1f f1 33 bd 9a 52 65 bd
       0.026521055 0.049850054 -0.043931123 -0.055986978
000120 ae 3b 35 be 63 a8 d9 bd bc 4f 72 be 60 5e 84 bd
       -0.17698547 -0.1062782 -0.23663229 -0.06463313
000130 d0 b9 6c bc 84 f1 86 3d 98 d8 91 bc 52 ee 11 3e
       -0.014448598 0.06589034 -0.017803475 0.14251068
000140 20 15 5f 3d ec 85 e7 3c d6 cf 4e be ef 35 21 3e
       0.054463506 0.028262101 -0.2019647 0.1574323
000150 31 4d 13 bd 15 c0 21 3d aa f4 42 3c af 8a 33 3d
       -0.035962287 0.039489824 0.011899153 0.04383343
000160 4d 89 ab bd 17 ce fc 3c 2e 3f 17 3e e5 d8 73 bd
       -0.083757974 0.03085999 0.14770195 -0.05953302
000170 0d ef 27 bd 5e d5 3d 3d 51 df af 3d c1 44 ec 3d
       -0.04099946 0.04634606 0.08587516 0.11536551
000180 a1 3b d4 3d 5e 4b 99 bd d6 a7 58 be fb 43 0c be
       0.10362936 -0.07485078 -0.21157774 -0.13697807
000190 49 4c c8 3c c5 d6 50 3d 17 7b de 3d 0a 9f ae bc
       0.024450438 0.05098607 0.10863321 -0.02131607
0001a0 5c ae 4e 3c 3e a8 fa bd 5c 8b dd 3c dc 95 ab bd
       0.012614813 -0.12239121 0.02704399 -0.08378193
0001b0 a3 57 f8 bd 37 32 bd 3d 2d 64 16 3d 58 56 0b bd
       -0.121260904 0.09238093 0.03671663 -0.03401789
0001c0 43 db 23 be 1a 13 b8 bd c1 ef 15 be d3 14 9a 3c
       -0.1600161 -0.08988018 -0.1464224 0.018808758
0001d0 ec 68 7a 3b da fa 47 3d d9 59 4e be 68 c7 18 3e
       0.003820951 0.048823215 -0.20151462 0.14919817
0001e0 2a 07 08 bd 5f a3 27 bc e8 f7 5a be 61 d1 62 3d
       -0.033209957 -0.010231822 -0.21383631 0.05537546
0001f0 0e c2 9a bd f5 04 07 3e 2e 32 35 bd 02 af 64 bd
       -0.07556544 0.13185485 -0.04423731 -0.055830963
000200 90 3c b0 bd 3e 96 52 3e 06 e7 b8 bd ba f7 54 bd
       -0.086053014 0.20565125 -0.09028439 -0.051994063
000210 8c d9 da bd 9c 00 b4 bd fb b4 c0 bd 92 85 e6 bd
       -0.10686025 -0.08789179 -0.09409519 -0.11255945
000220 f0 50 89 be 88 d6 28 3e 2c ba 10 3d c5 46 44 3e
       -0.26819563 0.16488087 0.035333797 0.19167621
000230 f2 94 45 3c 2a 16 95 bb 54 2d 24 be 27 c4 01 be
       0.012059437 -0.0045497613 -0.16032916 -0.12672482
000240 2f 67 90 bd b8 44 ed bd 37 2b 94 3d 84 4b 48 be
       -0.07050931 -0.11585373 0.07234805 -0.19560057
000250 bf 23 8f bd 33 d7 f6 bc 07 c1 35 bd bf a1 28 be
       -0.0698924 -0.030131912 -0.04437354 -0.16467951
000260 8a e9 23 3e 84 f7 56 3e 88 ac 88 bd a0 d4 d7 3d
       0.16007057 0.20992857 -0.06673533 0.10538602
000270 fd 1d 8b 3d dd 10 d4 bd 95 aa bd b9 44 9d 70 3d
       0.06792829 -0.10354779 -0.00036175983 0.05874373
000280 a1 39 5e be d7 b5 3f 3d 7a 54 f9 bc ab 68 58 bd
       -0.21701671 0.046804275 -0.03043579 -0.052834194
000290 bd fd 7f bc ab 99 8c bc a0 0b 17 3d fb af d2 bd
       -0.015624461 -0.017163118 0.03687632 -0.10287472
0002a0 05 3f 1a bd 93 d0 18 bd f5 5c 68 3e 4e d4 14 be
       -0.037657756 -0.037308287 0.2269171 -0.14534113
0002b0 55 45 36 3d a2 2b 1e bc 63 dc f6 3d aa f0 d2 bc
       0.044499714 -0.009653958 0.12053754 -0.025749523
0002c0 58 30 cc 3d 37 ee 38 3d b0 d1 9d 3b 91 bb 02 3e
       0.09970158 0.045149054 0.0048162565 0.12766863
0002d0 d7 8d ec 3b 01 36 1a be 5e 44 84 bd ef 43 40 3d
       0.007219057 -0.15059663 -0.064583525 0.046939787
0002e0 dc 4d a3 bb 7c 74 68 3d 95 c4 82 3d 0a 17 16 3d
       -0.004983647 0.056751713 0.06385151 0.036643066
0002f0 80 e8 25 3e dd 54 9c bd 4e 77 0f 3e bc 52 86 bc
       0.16201973 -0.07633374 0.14010355 -0.016396873
000300 f2 38 8d 3d 7d ae 93 be 84 48 b3 bd 15 fe f3 bd
       0.06895627 -0.28844061 -0.08754066 -0.11913697
000310 5e b5 f5 3c 9f 2c 8e 3d 02 44 a3 3c 8f d2 60 bd
       0.02999371 0.069421045 0.01992989 -0.054888304
000320 73 25 b3 3d fc 89 15 bb b8 8c 7e bd c2 c3 72 3d
       0.08747377 -0.002281784 -0.06214592 0.05926872
000330 7f 45 b8 bd 8b c9 e1 bc c7 91 6f 3d 0e 42 b9 3d
       -0.0899763 -0.027561923 0.058488633 0.09045802
000340 85 e7 53 3d 2b 20 85 bd 3c 83 4b 3e 41 b5 6f 3d
       0.051734466 -0.06500276 0.1987428 0.058522467
000350 67 61 a0 3d 13 b3 f9 3b a4 98 9d 3d a8 93 5c 3d
       0.07831078 0.0076202243 0.076951295 0.053851753
000360 4d 7d dd 3d 37 b6 0d bb 57 81 2a be fe 58 8f bd
       0.10814915 -0.00216235 -0.16650902 -0.06999396
000370 81 98 80 3d c8 99 a8 3d 9d 53 33 be 5a 59 71 be
       0.06279088 0.082324564 -0.17512365 -0.23569241
000380 19 92 25 be 9e a6 92 3d 14 3f 84 3c 5f 4d f3 3d
       -0.16169013 0.07160686 0.01614336 0.11879992
000390 71 8d 38 3d d2 63 30 bd 68 ad 2b 3e b5 2a af bd
       0.045056764 -0.043063946 0.16765368 -0.085530676
0003a0 8f f4 73 3c 67 1d 8c 3c b2 17 19 be 7f 5c b0 bd
       0.01488985 0.017103864 -0.14950445 -0.08611392
0003b0 ba b9 1e 3e 11 62 d5 bb d6 59 88 bd 0a 00 6b be
       0.15500537 -0.0065119346 -0.0665776 -0.22949234
0003c0 f6 51 0c be ad 4d 32 3e 3a 10 f1 bb a0 45 49 bd
       -0.1370314 0.17412443 -0.0073566707 -0.049138665
0003d0 9c a4 8d 3d 1e 05 99 3d 72 ef 5b 3e 7e de 6b be
       0.06916162 0.07471679 0.2147806 -0.23034093
0003e0 4a dc bc bd c3 d4 9e 3d 80 5e 3c bc 2f d6 05 3e
       -0.09221704 0.07755425 -0.01149714 0.13069986
0003f0 19 ae 34 3d eb 0a f3 bd 99 1a 7f bd d1 61 5c be
       0.044111345 -0.11867317 -0.062281225 -0.21521689

2.bias f4 [10]
000000 f9 a8 91 bd 03 85 c3 bc 9f 85 a5 3d 5c 06 99 bd
       -0.07112307 -0.023867136 0.08082127 -0.07471916
000010 ee 6a 14 3d fe 7f 92 3c 64 72 bc 3c 90 fa 4e bd
       0.03623479 0.017883297 0.023003764 -0.050531924
000020 6a 37 01 bd d9 21 45 3d
       -0.031546988 0.048127983
